Orijinal ve Çoğaltılmış eğitim verileri birleştirildi.
Birleştirilmiş eğitim seti karıştırılıyor...
Toplam Eğitim Seti Boyutu (Orijinal+Aug): (6061, 64, 64, 3)
Test Seti Boyutu (Değişmedi): (275, 64, 64, 3)
CNN modeli oluşturuluyor...
Model: "sequential"
_________________________________________________________________
 Layer (type)                Output Shape              Param #   
=================================================================
 conv2d (Conv2D)             (None, 62, 62, 32)        896       
                                                                 
 max_pooling2d (MaxPooling2  (None, 31, 31, 32)        0         
 D)                                                              
                                                                 
 batch_normalization (Batch  (None, 31, 31, 32)        128       
 Normalization)                                                  
                                                                 
 conv2d_1 (Conv2D)           (None, 29, 29, 64)        18496     
                                                                 
 max_pooling2d_1 (MaxPoolin  (None, 14, 14, 64)        0         
 g2D)                                                            
                                                                 
 batch_normalization_1 (Bat  (None, 14, 14, 64)        256       
 chNormalization)                                                
                                                                 
 conv2d_2 (Conv2D)           (None, 12, 12, 128)       73856     
                                                                 
 max_pooling2d_2 (MaxPoolin  (None, 6, 6, 128)         0         
 g2D)                                                            
                                                                 
 conv2d_3 (Conv2D)           (None, 4, 4, 256)         295168    
                                                                 
 max_pooling2d_3 (MaxPoolin  (None, 2, 2, 256)         0         
 g2D)                                                            
                                                                 
 flatten (Flatten)           (None, 1024)              0         
                                                                 
 dropout (Dropout)           (None, 1024)              0         
                                                                 
 dense (Dense)               (None, 256)               262400    
                                                                 
 dense_1 (Dense)             (None, 5)                 1285      
                                                                 
=================================================================
Total params: 652485 (2.49 MB)
Trainable params: 652293 (2.49 MB)
Non-trainable params: 192 (768.00 Byte)
_________________________________________________________________

Model derleniyor...
Model (Orijinal+Augmented Veri) eğitiliyor...
Epoch 1/50
189/189 [==============================] - 34s 172ms/step - loss: 1.5982 - accuracy: 0.6691 - val_loss: 1.2611 - val_accuracy: 0.7055
…
